src/app/backend/linear_model.pth (torch, 771343 bytes, 4 tensors)

lin1.weight f4 [64, 3000]
00000000: 9a45 da3a 14d7 e23b 695f 243c 9c24 a4bb
00000010: 8872 853c eb78 443c 95f5 663c 90eb f03c
00000020: 25ea b63c f739 533c 55be dc3b cba8 cb3c
00000030: 127b 653c d981 cbbb cf3a 07ba 537b 463c
00000040: f76f 213c f5c2 a13b 3885 cfbc c752 8bbc
00000050: 5aa1 d33c 818d b13c 45a6 dd3c 654b 7c3c
00000060: 123f f63c b8a6 883c cefb c93c 0020 e7bc
00000070: 26b8 0d3b 3b83 873c 2d82 ed3c 5e88 ba3c
00000080: 1f51 d8bc 1f45 e73c 41df 3d3c 7fe0 ed3c
00000090: f555 bf3b 92e0 b2bb a2c6 f83b efed e4bb
000000a0: c695 e63c fa02 aa3c d314 b03a 33f7 e73b
000000b0: 029c e6bb 9292 61bb 2c43 0b3b fd40 9e3c
000000c0: a273 d1ba 46a2 40bc d607 e13c d610 c13c
000000d0: b4bd 673c ac26 843c 3dae 9e3b 5c4e 143b
000000e0: 228c 8cbc d7eb a6bb 2e92 d93b f67a 0bbb
000000f0: 7457 91bc 7f48 f0bc 7211 863c ff80 353b
00000100: 0efb a9ba b5cc fb3b 0e4c cfb9 cd2f 983c
00000110: 27c4 023b c783 8d3c a06a e13c 4809 693b
00000120: 877f e6bb 90de b83c b20a aabb 5c70 f5bc
00000130: bbdf 753b 5fb3 80ba d3ec a43b 3bc0 0f3c
00000140: 9532 033b cb21 8f3b d0da 50bc dfc3 f23b
00000150: 3abd 863b 73f4 843c 5c7f 363c 3d75 bdbc
00000160: a14b 91bc 0235 9fbb 22a8 94bc e585 b93a
00000170: 94d9 16bc c59a 5c3b 8a85 eb3c 95bd 2abb
00000180: 4353 82bc 60e2 4f3b 7467 ae3c c5b5 013c
00000190: 8c48 833c 8151 29bc ba62 e53c 4af7 583b
000001a0: e69b cc3b 415a ba3c d9d7 be3c 6ca9 f73c
000001b0: b680 8cbb bad2 ca3c 0200 533b de64 873c
000001c0: 2859 d43b 203f 9f3a 70cb 913c 9e35 bfbb
000001d0: 52e0 b43c 5a28 c53c 0a60 ea3c e78e c83c
000001e0: c415 663c 7588 8dbc 6e1a 353b b8fd aabb
000001f0: a16c da3c d053 8bbb 1062 62ba a5f9 adbc
00000200: a504 88bb 4743 c33c 4af9 653b e5ac a9bc
00000210: 059d fd3a f9cb f23c d1f2 c73c d4b9 853b
00000220: 8be2 9ebb 8a14 b1bc 3b0f dc3c 61c5 90bc
00000230: 9f4d 483c b747 bc3c c938 903c fea3 8bbb
00000240: 44a7 9fbc 80c9 6ebb 307d ecbc 1e41 ad3c
00000250: 9c3c 523c 0b8c cd3c d262 c63b 7475 d3bc
00000260: b95d d03c 78be cf3b 10ed 443c a782 36bc
00000270: aa4a 4abc f084 b63c b456 6e3c 4866 8f3b
00000280: 505c 4a3c 8816 9f3c 9b3b 243c 836e 8b3c
00000290: dc90 353b d9e3 4e3b 2a87 80bb 6a3f 8b3b
000002a0: 5b30 6bbc d8d0 e43c e0ff 133c 3358 b23c
000002b0: 0c97 943b 193e ac3c 2d80 d63c 56cf aebb
000002c0: 2283 5c3b 8c32 dc3c 50ce 3c3c c3c7 92bc
000002d0: 21c4 19bc ae3e 72ba 0467 e5b9 d71f cabc
000002e0: 667a fab9 e367 3d3c bab4 503a 5788 a0bc
000002f0: b34b e4bc 4b3b cd3c 83f8 0e3c b130 debb
00000300: 7d08 2f3c 9c2d 49ba 88fe 00bc 35df b33b
00000310: 0cef 943c 2cab 683c c574 1dba b202 ec3c
00000320: 8eb3 b0bc 8e60 063c c282 873c 03e5 80bc
00000330: 3335 afbc 1769 f13c a16d 803c a775 e03c
00000340: d877 ddbc de37 d7bc 61c3 e33c 54c3 023b
00000350: 64b2 1bbb 33c7 a0bb b891 873b 483d b2bb
00000360: 5b06 643c 4ec0 dcbc 249f 6d3c c0cf 37b7
00000370: 3c6f 7cbb 47aa 6e3b b9c1 1e3c 9682 f43c
00000380: 48b1 6dbb 85fc aabb fa94 863a f0cc 2138
00000390: 6535 ef3c 73a4 a7bc 67cb 313c 8866 5a3b
000003a0: c9ca 1ebc ba84 d9ba 28a8 b43c 066d b539
000003b0: 2e66 84bc 4e56 3e3c dc06 023c fb58 363c
000003c0: 9e91 2e3c 17d4 803c c87d 3bbc f7a3 6a3c
000003d0: c5a7 80bb f6eb 20bb 39c1 9abb 04eb edbb
000003e0: 732b 19bb 0a2f e63c 9065 863c 0b4f b43b
000003f0: 8220 9cbc 94cb cfbb db8d 47bc e2dd 433b
0.0016652823 0.006922612 0.010032513 -0.005009247 0.016289964 0.01199172 0.014096637 0.0294092
0.022328446 0.012892238 0.0067365565 0.02486076 0.014006393 -0.0062105474 -0.00051586045 0.012114364
0.009853355 0.004936571 -0.025332078 -0.017007245 0.025833774 0.02167392 0.027056823 0.015398835
0.030059371 0.01668106 0.024656203 -0.028213501 0.0021624654 0.016542068 0.028992737 0.022770103
-0.026405869 0.028231202 0.011588872 0.029037712 0.0058391043 -0.0054589 0.0075920383 -0.0069863717
0.02814759 0.020753372 0.001343394 0.007079029 -0.0070376405 -0.0034419638 0.0021249754 0.019318098
-0.0015979896 -0.011757439 0.027469557 0.023567598 0.01414435 0.016131721 0.004842548 0.0022629714
-0.017156664 -0.0050940323 0.0066397404 -0.0021283007 -0.017741896 -0.029331444 0.01636574 0.0027695296
-0.0012968497 0.007684315 -0.00039538782 0.01857748 0.0019953342 0.01727475 0.027516663 0.003555851
-0.0070342454 0.022567064 -0.0051892633 -0.029960804 0.0037517387 -0.0009819082 0.0050331145 0.008773859
0.0020019163 0.004368042 -0.012747481 0.0074086036 0.004111913 0.016229844 0.011138763 -0.023127193
-0.017736258 -0.004858614 -0.018146578 0.0014154284 -0.009207148 0.0033661586 0.0287502 -0.002605294
-0.015908843 0.0031720623 0.021289565 0.007916872 0.016025804 -0.010334373 0.028001178 0.003310638
0.0062441705 0.022748115 0.023296284 0.030232154 -0.0042878045 0.024758685 0.003219605 0.01652759
0.006480355 0.001214955 0.017797202 -0.005835249 0.02207962 0.024067093 0.028610248 0.024482204
0.014043275 -0.017276982 0.0027634162 -0.005218234 0.026663126 -0.0042519346 -0.0008635828 -0.021237204
-0.0041509443 0.023835791 0.0035091215 -0.020712325 0.0019349164 0.029638277 0.024407776 0.0040809903
-0.0048487834 -0.02161624 0.026862731 -0.017672243 0.012225538 0.022983415 0.017605202 -0.0042614928
-0.019488938 -0.0036436021 -0.028868288 0.021149214 0.012831833 0.025091192 0.006054261 -0.025812842
0.025435315 0.0063398443 0.012019411 -0.011139548 -0.012346903 0.022280186 0.014547039 0.0043762065
0.012351111 0.019419923 0.010023977 0.01702047 0.002770475 0.0031568913 -0.003922363 0.004249503
-0.014354791 0.027931616 0.009033173 0.021770572 0.0045346078 0.021025704 0.026184166 -0.005334775
0.0033647497 0.026879571 0.011523798 -0.01791752 -0.00938514 -0.00092409074 -0.00043755036 -0.024673386
-0.0004777491 0.011560413 0.00079615007 -0.019596262 -0.027868127 0.025052687 0.008726242 -0.006780707
0.010683176 -0.0007674338 -0.007873185 0.005489255 0.018180393 0.014200967 -0.0006006475 0.028809879
-0.021569993 0.008201731 0.016541842 -0.015734201 -0.021387672 0.029469056 0.015677275 0.027399851
-0.027034685 -0.026271757 0.027803125 0.001995285 -0.0023757452 -0.004906559 0.004137244 -0.005439434
0.013917531 -0.026947167 0.014503274 -1.0956021e-05 -0.003851845 0.0036417411 0.009689742 0.029847424
-0.0036268998 -0.005218091 0.0010267787 3.8576254e-05 0.029200265 -0.020464158 0.010851718 0.0033325274
-0.009691902 -0.0016595342 0.02205284 0.0003460424 -0.016162004 0.011617256 0.007936206 0.011129613
0.010654835 0.015726132 -0.011443563 0.014321319 -0.0039262497 -0.0024554706 -0.004722741 -0.007260682
-0.0023371845 0.028098602 0.01640585 0.0055025867 -0.01905847 -0.006341407 -0.012179817 0.002988689

lin1.bias f4 [64]
00000000: 96f3 e83c 1457 1c3c e053 db3c 7d3c de3b
00000010: 29ca 633c 662a ccbb 0794 be3c 2ac4 423c
00000020: fb24 76bb dde3 1c3c d246 8d3c 5c98 be3c
00000030: c048 1d3c fe5a b8bb 51de a63c 67ef e63c
00000040: 2244 e53b 28f7 f7b8 7ec4 9e3b 0df8 103c
00000050: 29c7 a83c 91e1 cd3c 5a5b 333b 6c73 933b
00000060: 23c4 30bc 2d45 5b3b 6640 b9bb 109e c63c
00000070: 1cef 753c 2ab5 703b 93bf 2c3b 481d cb3b
00000080: 45f5 bc3c a7e8 6bbb 38f8 933a 4632 823c
00000090: 0da4 423c 7e54 20bc 86a8 f33b a251 a239
000000a0: 9203 8f3c d0c6 f4ba 9b94 3c3c 2435 d8bb
000000b0: 1c80 be3c 38b3 82bb 2e13 143b 9b6b 683c
000000c0: 1a88 1f3b 4987 b23b b9ea 8d3b 7923 e63c
000000d0: 73d6 a23c 6ce9 da3c bd5d b93b 4199 be3c
000000e0: 9fa6 b53b 3ec1 993b 149e 94bc e38b c7ba
000000f0: c44b 5b3b 2904 50bb cf40 323c 8eeb eb3c
0.028436463 0.009542245 0.026773393 0.006782113 0.013903179 -0.00623064 0.023263944 0.0118875895
-0.0037558663 0.009575811 0.017245684 0.02326601 0.0095998645 -0.0056260815 0.02036968 0.028190328
0.0069966475 -0.00011823914 0.004845201 0.008848202 0.02060278 0.025131973 0.0027367682 0.0044998433
-0.01078895 0.003345798 -0.005653429 0.024245292 0.015010621 0.0036729076 0.0026359304 0.006198559
0.023066172 -0.0035996826 0.0011289185 0.015893113 0.011879933 -0.0097857695 0.007435861 0.0003095987
0.017457757 -0.0018674973 0.01151004 -0.0065981317 0.023254447 -0.0039886497 0.002259444 0.014185811
0.0024342597 0.005448256 0.0043309596 0.028093087 0.019877648 0.026722632 0.0056569264 0.023266437
0.0055435444 0.0046922257 -0.018141784 -0.0015224185 0.0033461908 -0.003174076 0.010879709 0.028798845

lin2.weight f4 [2, 64]
00000000: fa86 ab3d 045a ddbd 51ad fabc eee6 86bd
00000010: 8d0e cfbd 1503 e73d 02c6 b4bb d268 ce3d
00000020: 1e8a 0abe 9e16 9fbd 1f12 633c b4f8 fc3d
00000030: 188e 313c 5c22 f03c a4f7 dbbd e296 b5bd
00000040: 63bb 903c 4c49 03bd 9400 f8bd 06bb 8bbd
00000050: 1889 4abb c0c8 853d 53e9 033e ff3c f2bc
00000060: 9f1a 0b3d c43a af3d 2114 913d 4cd0 b6bd
00000070: aa14 2a3d 8ae9 ccbd e334 c23d 6ada a8bd
00000080: 4f50 c43d d5b2 4ebd edd7 073e 6322 35bd
00000090: f427 f2bd 6ef2 8abd 903b 83bc 5d1f dbbd
000000a0: 8582 eb3d 95ca 6abd 096e 93bd a2ed cabd
000000b0: 76cc e23d 9683 55bd 1fdb b43c 377a 77bd
000000c0: 7b09 a3bd d945 e1bd 8fc1 043e 81f6 cf3d
000000d0: d3f3 91bb cb54 92bc 0268 edbc d879 f2bd
000000e0: 447e 033e 0e48 ebbb 8975 37bc daab 963d
000000f0: cb29 b73d 8de3 163d f9d1 383a a88c 06bd
00000100: 1811 81bd ba09 df3d 7ff2 4ebd f222 cabd
00000110: 6d3d 993d 1772 a8bd 870c 0bbd 1087 a8bd
00000120: 4470 f03d f401 1dbd f72e cd3d 38c7 71bc
00000130: 0fb6 fe3d d397 f4bd 5e34 1c3d 37ec ba3c
00000140: 14b0 e3bd 8e1f c4bd 5ee2 cd3d 498c 273c
00000150: 4a3d b13d b73d 9f3c fb56 4b3c 32d4 9fbd
00000160: 507f 9bbd 7454 2b3d fac0 9d3a 6659 c93d
00000170: a6b2 72bd 52d9 bc3d 46ec 2cbd ee4d 623d
00000180: cf45 cfbd 33f4 f33d a116 7abd 7b0d bb3d
00000190: d816 89bd 285a bdbd 78ae 35bd 5b4e 7cbd
000001a0: 7f9b 8ebd 4ab6 aebd 561e edbc 39b3 0dbc
000001b0: 370c 123d 8912 963c f4fd 033e 01c1 0f3c
000001c0: 6cfe ff3d 0a2e 3dbd 7f02 b73d a93c 6e3c
000001d0: 1ee2 d8bd fa28 053e 865b 903d 2a84 97bd
000001e0: 1150 fdbd 8f0c cebd 7988 513c 4ef5 4d3c
000001f0: c8df 90bc 4e92 67bd 303e e43d 5ff5 03be
0.08375354 -0.10808185 -0.030600222 -0.06587015 -0.10110197 0.11279885 -0.0055167684 0.10078587
-0.1352925 -0.07767986 0.013859301 0.12352124 0.0108371 0.029313259 -0.10740593 -0.08866669
0.017667478 -0.032052323 -0.12109485 -0.06822781 -0.0030904468 0.06532431 0.12881975 -0.0295701
0.033960935 0.085561305 0.070839174 -0.08926448 0.041523613 -0.100054815 0.094827436 -0.08244784
0.0958563 -0.050463516 0.13265963 -0.044222247 -0.11824027 -0.06784521 -0.016019613 -0.106993414
0.11499504 -0.057322104 -0.07198722 -0.09908606 0.11074154 -0.052127443 0.022077141 -0.060419288
-0.07960793 -0.109996505 0.12964462 0.10154439 -0.004454115 -0.017862698 -0.028980259 -0.11839646
0.12841135 -0.0071802204 -0.011197456 0.07356997 0.08943518 0.036838103 0.00070503313 -0.032848984
-0.063020885 0.10890527 -0.05052423 -0.098699465 0.07482419 -0.08224886 -0.033947494 -0.08228886
0.11740163 -0.03833194 0.100187235 -0.01475697 0.12437069 -0.11943021 0.03813588 0.022817714
-0.111175686 -0.09576331 0.10052942 0.010226318 0.08654268 0.019438608 0.0124108745 -0.07804145
-0.07592642 0.041828588 0.0012035661 0.098315045 -0.059252404 0.09221138 -0.042217515 0.0552501
-0.10120737 0.11911812 -0.061056737 0.091334306 -0.0669381 -0.092457116 -0.04435584 -0.061598163
-0.06963252 -0.08530863 -0.02894513 -0.008648687 0.03565618 0.018319385 0.12889844 0.008774043
0.12499699 -0.046186484 0.08936023 0.01454083 -0.105900034 0.13003913 0.07048707 -0.07398255
-0.12368787 -0.10060989 0.012788885 0.012570692 -0.017684832 -0.05653601 0.11144674 -0.1288657

lin2.bias f4 [2]
00000000: b596 583d f2ce 843d
0.0528781 0.06484784
