src/app/backend/logistical_model.pth (torch, 93869 bytes, 1 tensors)

linear.weight f4 [1, 22962]
0	0x3cac6f7b	0.021049252
1	0xbc8cc5f0	-0.017184228
2	0xbc88d448	-0.016702786
3	0x3c4af0d6	0.012386521
4	0xbc7027eb	-0.014657955
5	0xbc50448a	-0.0127116535
6	0x3c92bfa0	0.01791364
7	0xbc6a3960	-0.014295906
8	0xbc997cf3	-0.018736338
9	0xbc89fbe8	-0.016843751
10	0xbcaf37f2	-0.021388981
11	0xbc824fa0	-0.015907109
12	0x3c441e5d	0.01197013
13	0x3bf9cd54	0.007623354
14	0xbc6b4210	-0.014359012
15	0xbc1a01a0	-0.0093998015
16	0x3c24a6eb	0.010049562
17	0xbc9885f2	-0.018618558
18	0xbc1355d2	-0.008992629
19	0x3ca8f49b	0.02062445
20	0xbc8dc91f	-0.017307816
21	0x3c39717f	0.0113185635
22	0xbcaef959	-0.021359133
23	0xbc62380d	-0.013807309
24	0x3bcbe378	0.0062221847
25	0xbc9a9c80	-0.018873453
26	0xbca13fe9	-0.019683795
27	0x3c235210	0.009968296
28	0x3c76df39	0.015067869
29	0x3c30c60b	0.010789405
30	0xbc1c5e5b	-0.0095439805
31	0xbc86c668	-0.01645203
32	0x3c249098	0.010044239
33	0xbc43cbac	-0.011950415
34	0x3c3d98fc	0.011572119
35	0xbca5e6f5	-0.02025173
36	0x3ca2a85c	0.01985567
37	0xbc4c8455	-0.012482722
38	0xbc885a8e	-0.016644742
39	0xbc908dd0	-0.017645746
40	0xbc9cfa72	-0.01916239
41	0x3cacf082	0.021110777
42	0x3c96222f	0.018326847
43	0xbc08d954	-0.008352596
44	0x3c3d5708	0.011556394
45	0xbc49fa21	-0.012327702
46	0xbca47c79	-0.020078884
47	0xbc5a4e24	-0.013324294
48	0x3ca864ee	0.02055594
49	0xbc0fffda	-0.008789027
50	0xbc8a0a5d	-0.016850645
51	0xbc498b13	-0.012301224
52	0xbc35ddfa	-0.011100287
53	0xbcac05f1	-0.020998927
54	0x3c186738	0.009301953
55	0xbc3e6112	-0.011619823
56	0x3c97a49b	0.018511107
57	0x3c1b8ec9	0.009494492
58	0xbc524af7	-0.012835256
59	0x3c17006f	0.009216412
60	0xbc9b3f7c	-0.01895117
61	0xbc4943b3	-0.012284207
62	0x3c310fde	0.010807006
63	0xbca8f6e3	-0.020625537
64	0xbc2dc3bb	-0.010605748
65	0x3c878587	0.016543163
66	0xbc8305e7	-0.015994025
67	0xbca0723e	-0.019585725
68	0x3c4e5968	0.012594558
69	0xbc269707	-0.010167844
70	0xbc19222a	-0.009346524
71	0xbc4f0575	-0.012635578
72	0x3c3de558	0.011590324
73	0x3c7aaba1	0.015299709
74	0xbc52a2ac	-0.012856167
75	0xbc1bba05	-0.0095048
76	0xbc14807e	-0.009063838
77	0xbc46a148	-0.012123413
78	0xbca63882	-0.020290617
79	0x3c0a4cb2	0.008441137
80	0xbca9f07e	-0.020744558
81	0xbc0b98fd	-0.008520362
82	0xbc8c2873	-0.017109131
83	0xbc59b756	-0.01328834
84	0xbc7b6e74	-0.015346158
85	0xbc2e7ce7	-0.010649896
86	0xbc7fcfd8	-0.015613519
87	0x3c338e4e	0.010959221
88	0xbcad1d11	-0.021132024
89	0xbc9272ad	-0.017876947
90	0xbc6b1ed7	-0.0143506145
91	0x3c8862db	0.0166487
92	0xbc6a2618	-0.014291309
93	0xbca3e9e1	-0.020008983
94	0xbc518015	-0.012786885
95	0xbcaaef0e	-0.020865943
96	0xbc9d755c	-0.019221
97	0xbc1850b3	-0.009296584
98	0xbc93c18d	-0.018036628
99	0xbcabe555	-0.020983377
100	0x3c99ddf8	0.0187826
101	0x3c868ab4	0.01642356
102	0xbc8b6135	-0.017014125
103	0x3c603706	0.013684994
104	0x3c50a21e	0.012733964
105	0xbc2f11f6	-0.010685435
106	0xbc32f224	-0.010921989
107	0xbc0bf057	-0.008541188
108	0x3c989ae7	0.01862855
109	0xbc450f0e	-0.012027515
110	0x3c677cea	0.014128903
111	0xbc7ad7c9	-0.015310236
112	0xbc4449d3	-0.011980492
113	0xbc8fbdc9	-0.017546551
114	0xbc27ddc6	-0.010245746
115	0xbc1bf117	-0.0095179295
116	0x3c9aeba5	0.018911192
117	0xbc653eec	-0.0139920525
118	0xbc275fe0	-0.0102157295
119	0x3c4d880f	0.012544646
120	0xbc538330	-0.0129096955
121	0x3c38e84b	0.011285852
122	0xbc93e8ea	-0.018055398
123	0xbc3a0e58	-0.011355959
124	0xbc3e5b40	-0.011618435
125	0xbc9bc3fd	-0.019014353
126	0x3c3b3961	0.011427254
127	0x3ca09189	0.019600647
128	0xbc603092	-0.013683455
129	0xbc522269	-0.012825587
130	0x3c125e0b	0.008933554
131	0x3c535294	0.012898106
132	0xbc24f056	-0.010067066
133	0xbc922a78	-0.017842516
134	0xbc40184a	-0.011724541
135	0xbca30148	-0.019898072
136	0xbc9c34cb	-0.019068142
137	0xbc8c9fa2	-0.017165963
138	0xbc9b895b	-0.018986395
139	0xbc48299c	-0.012216952
140	0xbca99e36	-0.020705324
141	0xbc7eb5ac	-0.015546244
142	0x3c713424	0.014721904
143	0xbc7916ed	-0.01520322
144	0xbc9e924a	-0.019356865
145	0xbc6067c9	-0.013696619
146	0xbc58a7b1	-0.0132235745
147	0xbc959209	-0.018258112
148	0xbc0e61be	-0.008690296
149	0x3c84786b	0.016170701
150	0x3c91949d	0.01777106
151	0x3ca97916	0.020687621
152	0xbc9a0684	-0.018801935
153	0xbc1b4100	-0.009475946
154	0xbc8b3225	-0.016991684
155	0xbcaf2f2e	-0.021384802
156	0x3c0c3b1e	0.0085590165
157	0x3cab9e68	0.020949557
158	0x3ca4fc8f	0.02013996
159	0xbc2da74a	-0.010598967
160	0xbc19c944	-0.009386364
161	0x3c97bcd1	0.018522652
162	0xbc32e6e6	-0.010919308
163	0x3c850308	0.016236797
164	0xbc290478	-0.010316007
165	0x3c4a8eaa	0.012363115
166	0xbcac2f97	-0.021018786
167	0xbca00adb	-0.019536426
168	0xbc8ddd67	-0.017317487
169	0x3c6a4a6c	0.01429997
170	0xbc92ef34	-0.017936327
171	0xbc34a5ca	-0.011025855
172	0x3c4c5f26	0.012473857
173	0xbc30f268	-0.010799982
174	0xbc34a024	-0.011024509
175	0xbc8c082f	-0.017093746
176	0xbc80b274	-0.015710093
177	0xbc463888	-0.012098439
178	0xbc96d0b0	-0.018410057
179	0xbc4b858d	-0.012421978
180	0x3c453402	0.012036325
181	0x3ca5ec9d	0.020254428
182	0xbc8c32cf	-0.017114071
183	0x3c7d6270	0.015465364
184	0x3c42d13c	0.011890706
185	0xbca5762c	-0.02019795
186	0xbc8844a8	-0.0166343
187	0xbc57b64d	-0.0131660225
188	0x3c785a36	0.015158227
189	0x3c9de0c8	0.019272223
190	0xbca1ed85	-0.019766578
191	0xbcab3c2f	-0.020902721
192	0xbc217b09	-0.009855994
193	0x3c52c4a6	0.012864267
194	0xbc8db3ac	-0.017297588
195	0xbc979082	-0.018501524
196	0xbca6e2b6	-0.020371776
197	0x3c22dc9d	0.009940294
198	0x3ca1ae33	0.019736385
199	0xbc295fe4	-0.0103378035
200	0x3ca117ee	0.01966473
201	0x3caa3045	0.02077497
202	0x3c60e59f	0.013726621
203	0x3c4c1467	0.012456036
204	0xbc65d8bc	-0.014028724
205	0xbc823940	-0.01589644
206	0xbc8b25a6	-0.016985726
207	0xbc3ef672	-0.011655437
208	0xbc3f7795	-0.011686225
209	0xbc8f0a16	-0.017460864
210	0xbc77e3e1	-0.015130014
211	0x3c696086	0.014244204
212	0x3c0ddb6f	0.008658274
213	0x3c191d1e	0.009345321
214	0xbc6bd96a	-0.014395097
215	0xbc20c5a4	-0.009812746
216	0xbc41571f	-0.011800556
217	0xbc8f8744	-0.017520554
218	0xbc3ba1e0	-0.011452168
219	0xbc86931c	-0.01642757
220	0xbc524380	-0.012833476
221	0xbc8789bb	-0.016545167
222	0xbc369ace	-0.011145307
223	0xbc9e580e	-0.019329097
224	0xbc53d05b	-0.012928094
225	0xbc9e49ba	-0.019322265
226	0xbc42e8b8	-0.011896305
227	0x3c999220	0.018746436
228	0xbc801bb0	-0.015638202
229	0xbc3e1a00	-0.011602879
230	0xbc1a58db	-0.009420599
231	0x3c64163a	0.013921315
232	0xbc347ea0	-0.011016518
233	0xbc7499ba	-0.014929229
234	0xbc690451	-0.0142222205
235	0xbc50ee02	-0.012752058
236	0xbc9def5a	-0.01927917
237	0xbc417e32	-0.011809872
238	0xbc59c6a6	-0.01329199
239	0xbca738aa	-0.020412762
240	0xbc987a1a	-0.01861291
241	0xbc1b58a6	-0.009481585
242	0x3c5754da	0.013142789
243	0xbc96b680	-0.01839757
244	0xbc33103f	-0.010929166
245	0xbcad6101	-0.02116442
246	0xbc1762a9	-0.009239831
247	0xbc791178	-0.015201919
248	0xbc3323c4	-0.01093382
249	0xbc4f9e3e	-0.012672005
250	0xbca685a6	-0.0203274
251	0xbc0ccef7	-0.008594266
252	0x3c70dcf8	0.014701121
253	0xbc42dc6f	-0.011893376
254	0xbc6f9149	-0.014622041
255	0xbc57979d	-0.013158706
