src/app/backend/logistical_model.pth (torch, 122029 bytes, 1 tensors)

linear.weight f4 [1, 30000]
000000 b8 03 b5 3c c4 a7 90 3c ea cc 98 3c fa be 6e 3c
       0.0220965 0.017658122 0.018652398 0.0145719
000010 92 eb 76 3c 61 84 c7 3c b3 2d 64 3c 78 03 82 bc
       0.015070813 0.024355115 0.013926911 -0.015870795
000020 4e e7 93 bc b1 b2 87 3c 0d 2b 76 3c 06 65 a4 3c
       -0.01805463 0.016564699 0.015024913 0.020067703
000030 39 d0 c9 3c b6 52 92 3c 83 6c 73 3c 4b 61 d1 3c
       0.024635421 0.017861705 0.014857414 0.025559088
000040 9d a0 a8 3c 58 c3 9c bc da 22 9f 3c 21 dd 98 3c
       0.020584399 -0.019136116 0.019425798 0.01866013
000050 b2 a0 86 3c ce 0a c3 bc 23 7b 69 3c f4 13 cd 3c
       0.016434047 -0.023808863 0.0142505495 0.025033928
000060 71 3d a8 3c 03 cb aa 3c 47 3e 62 bc 7c 96 c7 3c
       0.02053711 0.020848757 -0.013808793 0.024363749
000070 fe 1b 7b 3c b4 55 d1 3c e9 94 c0 3c 77 1b a1 3c
       0.015326498 0.025553562 0.023508506 0.019666417
000080 8e d2 d1 3c 83 7a 79 3c 8b 94 ca 3c 07 92 69 3c
       0.025613096 0.015226963 0.024729034 0.014256007
000090 cc 18 cb bc a4 15 a7 3c 2e 6a 98 bc 8b ef b7 3c
       -0.024792098 0.020396061 -0.018605318 0.02245309
0000a0 7e a2 9a bc d2 a9 c1 bc c2 fe 6a 3c c1 d6 c8 3c
       -0.01887631 -0.023640547 0.014342966 0.024516465
0000b0 6b dc a8 3c f0 97 7a 3c 8f 81 86 3c 2e 6f 7b 3c
       0.020612916 0.015295014 0.0164192 0.0153463315
0000c0 fa 34 a3 3c 6d 0e c5 3c b0 31 a9 bc 7c af 85 3c
       0.019922722 0.02405473 -0.020653576 0.016319029
0000d0 7c d8 a0 3c 07 21 c5 3c 4e 8e b3 3c a7 9a c9 3c
       0.019634478 0.0240636 0.021918442 0.024609877
0000e0 da 9b 98 3c d5 b4 82 3c 82 2d 6f bc 96 01 7e 3c
       0.018629003 0.015955368 -0.014598252 0.015503308
0000f0 3a e6 85 bc 31 3f 96 3c d1 6b 3c bc 6a ff a7 bc
       -0.016345132 0.018340679 -0.011500315 -0.020507533
000100 bd c8 ce bc 09 df c6 3c a4 a6 a6 3c d8 1e 69 3c
       -0.025242204 0.024276273 0.020343132 0.014228545
000110 7a fa be 3c d0 bf 96 3c f2 15 a4 3c f3 9c 75 3c
       0.023312796 0.01840201 0.020029996 0.014991033
000120 33 a6 af bc 1c ac c6 3c 14 42 a8 bc 9d 0a cf bc
       -0.021441555 0.02425199 -0.020539321 -0.025273615
000130 f5 7f 83 3c a8 c8 9d 3c c7 25 88 3c b1 d0 93 3c
       0.016052226 0.01926072 0.016619576 0.018043848
000140 8e 97 92 3c 97 d8 bc 3c 5c f2 c3 3c 9d 01 c9 bc
       0.017894533 0.023052497 0.023919277 -0.024536902
000150 9d 1a 84 3c 97 4e 82 bc 74 62 96 bc 58 b0 bc 3c
       0.016125971 -0.015906615 -0.018357493 0.023033306
000160 50 a0 69 3c 1d 57 78 3c 6c d7 76 3c 66 15 8b 3c
       0.014259413 0.015157488 0.015066009 0.016977977
000170 9f 28 a5 3c 44 26 76 3c 83 fe 80 3c 4c 0a b6 3c
       0.020160971 0.015023772 0.01574636 0.022221707
000180 18 09 92 3c 8c 83 c3 3c 5f ff a2 bc 25 11 a3 3c
       0.017826602 0.023866437 -0.019897161 0.019905636
000190 3d dc 8c 3c fa 04 c1 3c f6 22 ad 3c d0 e6 cc bc
       0.017194862 0.023561943 0.021134835 -0.025012404
0001a0 9c 03 92 3c 78 63 8a 3c 8a 10 c5 3c 52 ac 87 bc
       0.017823987 0.016893134 0.024055738 -0.01656166
0001b0 24 87 a3 bc e6 53 82 3c e9 78 78 3c 69 8a c9 3c
       -0.019961901 0.015909147 0.015165546 0.024602132
0001c0 51 13 76 3c 2c 76 ab 3c 65 d6 93 3c 86 37 a3 bc
       0.015019254 0.020930372 0.018046567 -0.019923937
0001d0 0b b0 8a 3c f4 dc cc 3c 77 a6 cb bc 04 24 96 3c
       0.016929647 0.025007702 -0.02485965 0.01832772
0001e0 e2 9f 74 3c 12 a4 be 3c eb 6d ba 3c a5 9d 93 3c
       0.014930697 0.023271594 0.022757491 0.018019507
0001f0 7f be 94 3c 9a 0b a1 bc f1 de cf 3c ba 0c c6 3c
       0.018157242 -0.019658852 0.025374861 0.02417599
000200 97 e4 71 3c d7 c7 65 3c 8c 3c 6f 3c 8c 51 7c 3c
       0.014763973 0.014024696 0.014601838 0.015400302
000210 f2 97 b2 3c a2 ed a0 3c f6 fa 80 3c 49 2f b2 3c
       0.021800969 0.019644562 0.015744668 0.021751063
000220 73 57 bc 3c 94 e5 9d bc 9e 22 c3 3c fe ce 82 3c
       0.022990918 -0.01927451 0.023820218 0.015967842
000230 92 65 c2 3c 31 31 94 bc 59 56 8a bc 17 ff 4d 3c
       0.023730073 -0.018089863 -0.016886877 0.012573025
000240 23 8f d0 bc 0b fb 83 3c 04 d7 d1 bc 93 f8 c4 3c
       -0.025458878 0.016110918 -0.025615223 0.02404431
000250 f5 ab 94 3c c9 e6 76 bc 42 57 cf 3c 55 67 8f 3c
       0.018148402 -0.015069672 0.025310162 0.017505327
000260 37 2d d6 bc f4 b5 cc 3c de 4e c1 3c 70 e8 65 3c
       -0.026144607 0.024989106 0.023597177 0.014032468
000270 e5 ca 82 3c 11 54 90 3c e0 e2 aa 3c fa 7f 6b bc
       0.015965888 0.017618211 0.020860136 -0.014373774
000280 2b 1e 70 3c 4c 70 b7 bc 74 3e a6 3c ac 93 b5 3c
       0.01465563 -0.022392415 0.020293452 0.022165142
000290 c3 a5 72 bc ad d5 b1 3c 6f 20 cb 3c 60 99 5e 3c
       -0.0148100285 0.021708334 0.024795739 0.013586372
0002a0 00 4a b0 3c db 8b 92 3c f0 f8 bb 3c e8 25 b4 3c
       0.021519661 0.017888954 0.022945851 0.021990731
0002b0 a7 c7 b6 3c 56 b1 6a bc d6 27 ad 3c 2f 8e c4 bc
       0.022311999 -0.014324507 0.02113716 -0.02399358
0002c0 39 6a d0 3c 3c 73 a6 3c d8 98 a0 3c d4 5d 87 bc
       0.025441276 0.02031862 0.019604132 -0.016524233
0002d0 fa 30 a1 bc b0 cb 83 3c fc 22 b6 3c 9c 21 82 bc
       -0.019676674 0.016088337 0.022233479 -0.015885167
0002e0 2b 3b 71 3c 55 d4 96 3c f3 c0 98 3c c7 23 c4 bc
       0.014723579 0.018411795 0.018646693 -0.023942841
0002f0 8f 15 86 3c 0d d0 95 3c 6b ee 83 3c eb d5 9a 3c
       0.016367702 0.018287683 0.016104897 0.018900832
000300 3a a3 c6 bc 70 a8 b7 3c a2 3c 9b 3c c9 1e ae 3c
       -0.024247754 0.022419184 0.01894981 0.021254914
000310 9a 9e 93 3c 2c 73 b2 bc 42 10 b5 bc 34 42 c1 3c
       0.018019963 -0.021783434 -0.022102479 0.023591138
000320 8d 4a 80 3c 1b ae c7 3c f9 98 a8 3c a0 3b 94 3c
       0.015660549 0.024375012 0.020580756 0.018094838
000330 90 cd aa 3c ba eb b6 3c 16 48 74 3c 33 c8 9d bc
       0.020849973 0.0223292 0.014909765 -0.019260501
000340 4f 57 91 3c 52 6b 7f 3c cf e0 bb 3c f0 7b ce bc
       0.017741827 0.015589552 0.022934346 -0.025205582
000350 b3 a1 a3 bc 8f 57 d1 3c 19 b6 a5 3c a9 d2 95 bc
       -0.019974565 0.025554447 0.020228432 -0.018288927
000360 dc 2e 73 bc 16 65 84 3c 1e b2 ac bc 5d e1 ac 3c
       -0.014842715 0.016161483 -0.021081027 0.021103555
000370 5a 73 ae 3c 5f e5 86 3c b8 04 6f 3c 1f 2b 8d 3c
       0.021295238 0.016466795 0.014588527 0.017232476
000380 70 2f a9 3c f3 08 a4 3c cc af cf 3c 0d 9e cb bc
       0.020652503 0.020023799 0.025352381 -0.024855638
000390 d4 6e 83 3c 4f db 82 3c 51 d2 b5 3c fa 4d 8f 3c
       0.016044058 0.015973715 0.022195013 0.017493237
0003a0 e4 b5 97 bc 53 84 af 3c fb 63 a8 3c f0 0b 85 bc
       -0.01851935 0.021425402 0.020555487 -0.016241044
0003b0 e4 57 8b 3c 83 18 c7 3c 8c 4c aa 3c dc 05 c2 3c
       0.017009683 0.02430368 0.020788454 0.023684435
0003c0 ea b9 80 3c a7 24 9e 3c 51 64 8f 3c aa cf 74 3c
       0.01571365 0.019304587 0.01750389 0.014942089
0003d0 54 1d c3 3c 36 37 82 3c a2 c1 9d 3c 51 6b 85 3c
       0.023817696 0.015895467 0.01925737 0.016286524
0003e0 06 c4 82 3c ce 73 8f 3c c0 a9 9d 3c c6 ec 67 3c
       0.015962612 0.017511275 0.019245982 0.014155572
0003f0 d4 95 8f 3c b3 ef c2 3c 9a 7d b3 3c 1e 70 6d bc
       0.017527498 0.023795938 0.021910477 -0.014492063
