src/app/backend/logistical_model.pth (torch, 100717 bytes, 1 tensors)

linear.weight f4 [1, 24682]
0.022917602 -0.018040428 -0.022859577 0.018058533 -0.022942394 -0.019278057 0.020021167 -0.023528315
-0.01876376 -0.019670056 0.008822037 -0.019009545 -0.023246272 -0.008385795 0.0041629253 -0.023062838
-0.016546393 0.0018378502 -0.013865713 -0.021044435 0.022231096 -0.017357055 0.019282982 -0.019119393
-0.013701208 -0.021252621 -0.015902743 -0.014726138 0.01996986 -0.019541763 -0.015080457 0.01344754
0.019847704 -0.02161342 -0.019989137 -0.024098586 -0.015250417 0.018751884 -0.016788473 0.023008041
-0.025846105 0.0143603645 -0.023894219 -0.021527957 -0.013517671 -0.024981964 0.020932838 0.016221456
-0.018923178 0.0067522232 -0.024334539 -0.024087787 -0.014423206 0.0076363613 -0.021342684 -0.015689315
-0.013483164 -0.017955404 -0.016815286 0.013726999 -0.018069476 0.021040551 -0.019427242 0.01595926
-0.02437271 0.015882585 -0.019269736 -0.015449875 0.01788212 -0.017707275 -0.025361829 0.001371628
-0.015288218 -0.017406445 0.014225797 -0.013646378 -0.022357961 -0.020132028 -0.0153207015 0.024944372
-0.019240469 -0.02215733 -0.020919003 -0.015068606 -0.01720604 0.023798818 -0.019086942 -0.019189727
-0.015140005 -0.022056732 -0.02553785 -0.013570134 -0.019180477 -0.012572174 -0.015624398 -0.013364687
-0.020040242 0.019168593 -0.023404809 -0.018871304 -0.025621276 -0.02241855 -0.020334778 -0.022999557
-0.022177488 -0.010035809 0.015238321 0.016869087 -0.010130154 0.018029854 0.013681189 -0.025118664
-0.018830048 -0.013640881 0.024108414 -0.024936827 0.018034182 -0.016807178 -0.015468773 -0.01812317
-0.023597192 -0.014853736 0.023175502 -0.014881907 -0.024219714 0.025271531 -0.013200207 0.020027408
-0.014252414 -0.021362672 -0.018913416 -0.02120788 0.0250521 0.013243771 -0.018632963 0.020954434
-0.016014175 -0.012954628 0.022798471 0.008955573 -0.02162703 -0.021964239 -0.022103652 -0.025892925
-0.013767078 -0.024697758 -0.02281037 -0.02572594 -0.023835257 -0.015205722 -0.016616073 0.022300163
-0.019919217 -0.022649439 -0.020455547 -0.017936002 -0.023686578 -0.015513792 0.016767984 0.01626652
0.020418834 -0.025202638 -0.023934824 -0.020685673 -0.015756464 0.020692706 0.025861682 0.015278669
-0.014420097 -0.017077917 0.024455205 -0.014310371 0.011289743 -0.02240193 0.008017849 -0.0167983
-0.023578085 -0.013332552 -0.014026409 0.016964348 -0.020465003 -0.010864467 0.025893392 -0.01976519
-0.018541269 0.004023904 -0.015813017 -0.019442905 -0.019866876 -0.0160825 0.0022608452 0.023655774
-0.021780659 0.018141568 0.018987235 -0.01954081 0.011724386 -0.022526456 0.01517879 0.013697335
-0.017482698 -0.015421116 0.016789617 -0.024289133 0.018995384 -0.019380463 -0.015116593 -0.018395105
0.0012332888 0.014140453 -0.01955447 0.008403199 0.013732578 0.015379681 0.013572674 -0.015974443
-0.022912422 -0.024431517 0.017852994 -0.018176224 -0.015625952 -0.017816711 0.016392708 0.015357435
0.016916323 -0.024365794 -0.024084948 -0.021152375 -0.014668124 -0.015065263 -0.021532305 -0.0141818905
-0.017850934 -0.014264637 -0.018793972 -0.0130501855 -0.012831379 -0.016487865 -0.018604659 0.023069555
-0.021247992 -0.005688617 -0.014748577 0.017128522 -0.019510223 -0.008695805 -0.025650872 -0.021686988
-0.022458585 -0.0146931745 -0.015262088 -0.013454577 -0.021052904 -0.018831998 -0.023598952 0.016528875
00000000: b2bd bb3c 85c9 93bc 0244 bbbc 7def 933c
00000010: b0f1 bbbc 04ed 9dbc 6e03 a43c 74be c0bc
00000020: 75b6 99bc 1923 a1bc 4e8a 103c e8b9 9bbc
00000030: f76e bebc 9364 09bc 2669 883b 47ee bcbc
00000040: 4d8c 87bc 05e4 f03a 042d 63bc 6165 acbc
00000050: fd1d b63c 6230 8ebc 58f7 9d3c 46a0 9cbc
00000060: 087b 60bc fa19 aebc 7846 82bc e645 71bc
00000070: d597 a33c 0c16 a0bc 0514 77bc 1253 5c3c
00000080: a797 a23c a10e b1bc 42c0 a3bc 666a c5bc
00000090: e3dc 79bc 8d9d 993c fb87 89bc 5c7b bc3c
000000a0: 36bb d3bc bc47 6b3c cfbd c3bc 665b b0bc
000000b0: 3979 5dbc faa6 ccbc 587b ab3c dce2 843c
000000c0: c804 9bbc c141 dd3b 3a59 c7bc c053 c5bc
000000d0: 504f 6cbc 713a fa3b dad6 aebc e186 80bc
000000e0: 7de8 5cbc 3617 93bc 36c0 89bc 35e7 603c
000000f0: 7006 94bc 3c5d ac3c e125 9fbc febc 823c
00000100: 47a9 c7bc 321c 823c 91db 9dbc 7921 7dbc
00000110: 867d 923c d90e 91bc 9cc3 cfbc 33c8 b33a
00000120: 6f7b 7abc f697 8ebc 5113 693c 0f95 5fbc
00000130: 0b28 b7bc eceb a4bc ae03 7bbc 2458 cc3c
00000140: 309e 9dbc 4a83 b5bc 545e abbc 50e2 76bc
00000150: aef3 8cbc bdf5 c23c 385c 9cbc c633 9dbc
00000160: c90d 78bc 52b0 b4bc c134 d1bc 4455 5ebc
00000170: 6020 9dbc 85fb 4dbc 7afd 7fbc 8ff7 5abc
00000180: 6f2b a4bc 7407 9d3c 71bb bfbc fe97 9abc
00000190: b6e3 d1bc 1ba7 b7bc 1f95 a6bc 9169 bcbc
000001a0: 90ad b5bc 3c6d 24bc 27aa 793c 0a31 8a3c
000001b0: f2f8 25bc 58b3 933c 1127 603c a8c5 cdbc
000001c0: 7941 9abc 007e 5fbc 027f c53c 5148 ccbc
000001d0: 6cbc 933c 35af 89bc bd70 7dbc 0b77 94bc
000001e0: e64e c1bc 165d 73bc 8dda bd3c 3ed3 73bc
000001f0: 6c68 c6bc 3e06 cf3c ae45 58bc 8510 a43c
00000200: f582 69bc c500 afbc 4ff0 9abc 26bc adbc
00000210: 103a cd3c 67fc 583c 28a4 98bc a2a8 ab3c
00000220: 2930 83bc a63f 54bc dcc3 ba3c 65ba 123c
00000230: 2b2b b1bc 59ee b3bc b812 b5bc 661d d4bc
00000240: 4f8f 61bc f452 cabc d0dc babc 35bf d2bc
00000250: 2842 c3bc 6c21 79bc 6e1e 88bc d5ae b63c
00000260: a02d a3bc 518b b9bc 6492 a7bc 86ee 92bc
00000270: 5b0a c2bc 8f2d 7ebc 035d 893c 5d41 853c
00000280: 6645 a73c c375 cebc f712 c4bc 0075 a9bc
00000290: b313 81bc c083 a93c e1db d33c 6253 7a3c
000002a0: 4542 6cbc fde6 8bbc 4856 c83c 0c76 6abc
000002b0: 9df8 383c 4184 b7bc 4c5d 033c 979c 89bc
000002c0: d426 c1bc c770 5abc 06cf 65bc d1f8 8a3c
000002d0: 39a6 a7bc e100 32bc 611e d43c 9cea a1bc
000002e0: dce3 97bc f4da 833b 4d8a 81bc ba46 9fbc
000002f0: dcbf a2bc 72bf 83bc b02a 143b c1c9 c13c
00000300: 5a6d b2bc a09d 943c 1e8b 9b3c 0c14 a0bc
00000310: a417 403c 6789 b8bc 76b0 783c c96a 603c
00000320: e037 8fbc d9a8 7cbc 618a 893c 01fa c6bc
00000330: 359c 9b3c c7c3 9ebc 96ab 77bc 55b1 96bc
00000340: 4ea6 a13a 5cad 673c b230 a0bc 92ad 093c
00000350: 9bfe 603c 0ffb 7b3c ec5f 5e3c d6dc 82bc
00000360: d5b2 bbbc 9b24 c8bc 7140 923c 4ee6 94bc
00000370: ff01 80bc 5af4 91bc 004a 863c c09d 7b3c
00000380: 1a94 8a3c c69a c7bc cc4d c5bc bf47 adbc
00000390: 9252 70bc 4bd4 76bc 8464 b0bc 295b 68bc
000003a0: 1f3c 92bc 39b6 69bc d1f5 99bc 72d0 55bc
000003b0: b43a 52bc 8f11 87bc cc68 98bc 5dfc bc3c
000003c0: 4510 aebc 9467 babb 04a4 71bc 1d51 8c3c
000003d0: e7d3 9fbc da78 0ebc c721 d2bc e9a8 b1bc
000003e0: 11fb b7bc a4bb 70bc d60d 7abc 9670 5cbc
000003f0: 2477 acbc 9045 9abc 9752 c1bc 9067 873c
