src/app/backend/logistic_model.pth (torch, 13981 bytes, 1 tensors)

linear.weight f4 [1, 3000]
-0.008131978 -0.013960788 0.012016662 -0.0019039377 -0.025087742 -0.0152646145 -0.029981269 -0.027006265
-0.011402499 -0.004766371 -0.010994063 -0.033208877 -0.008714589 -0.010525944 -0.031860307 -0.009746013
-0.018888915 -0.01593038 0.032792967 0.004537505 -0.0015602038 -0.00075208844 -0.023268037 -0.013926178
-0.020109404 -0.026595619 0.001234971 0.006429651 0.025538817 -0.032697417 -0.027124621 5.164655e-05
0.025468953 -0.02733785 -4.416087e-05 -0.0011734808 -0.009305274 0.0028841703 0.0011830709 0.0020746705
-0.011301396 -0.0038018287 -0.025979405 -0.0075529558 0.03214163 -0.013936907 -0.02457209 -0.024167785
-0.02153072 0.02927894 -0.017931025 -0.032771084 -0.015392624 -0.0011344068 0.014105557 0.029533861
0.024714679 0.023279274 -0.02595546 0.016370414 0.023722496 0.011131046 -0.017981397 -0.002550045
0.005205758 0.0017361932 -0.020361872 0.0029179947 0.028403789 -0.020131877 -0.02446681 0.020450879
-0.026737414 -0.013359933 0.029879512 0.02982068 0.018987702 0.026024166 0.027418647 -0.023004515
-0.028039118 -0.007212355 -0.0013752433 -0.0017232235 -0.005746628 -0.024002748 -0.00921421 0.014804383
0.030308422 0.026633494 0.015580946 0.010429177 0.006258536 0.003287536 -0.019034937 0.012688096
0.012712786 0.024922265 -0.017212583 -0.0015889853 -0.03136385 0.021321164 -0.0074911616 -0.023222717
-0.02396509 -0.028461827 0.0012031953 -0.0041560987 0.030240443 -0.019002343 -0.0060378546 -0.01077669
-0.016533973 0.0328361 -0.022417266 -0.0021672142 -0.0023652036 -0.01153822 -0.027565213 0.0029806225
-0.009240954 -0.0004010889 -0.0020466016 -0.029082384 0.0008230524 0.023047827 -0.015675103 0.0034968134
-0.016046062 -0.002611306 -0.033093065 0.022463452 -0.0030206684 -0.0139807975 -0.023647208 -0.02290406
-0.028476447 0.013793008 -0.014587017 0.0036755693 -0.015577462 -0.026268562 -0.02483385 0.022871535
0.0064518303 0.002251129 0.017219204 -0.026985796 -0.022410905 0.0018581985 0.017971907 0.005870867
0.002733245 -0.027845774 0.015409182 0.022324564 0.028397426 -0.0055284076 -0.020974059 -0.011909852
-0.030442094 -0.012019354 -0.017227381 -0.029882526 -0.01716041 -0.0062085623 -0.028777603 -0.009559654
0.021270916 -0.013688334 -0.0025714883 -0.027591087 0.02912076 -0.017098185 -0.03105268 0.026689697
0.029129386 -0.018016394 -0.023893889 0.011789803 0.0050211935 0.0067479913 -0.0045644995 0.030368809
-0.015383872 -0.021892454 -0.01142592 0.01957263 0.018573603 -0.019234497 -0.032201767 0.021245044
-0.019532925 -0.032111734 0.0009862747 0.016053062 -0.008682627 -0.023761421 -0.0034534887 -0.010508907
0.030966181 0.0031679075 -0.009783514 0.031898886 0.032021306 -0.030442107 0.0006965444 -0.016510256
0.022173459 0.01629897 -0.024957655 0.008756412 -0.025479456 0.021282075 -0.022620784 -0.02486521
-0.0035999198 0.022507517 -0.014425902 0.00039607548 -0.028467048 0.021639299 -0.0007245962 -0.020298997
-0.009634613 -0.029122787 -0.008927452 -0.0039470564 -0.004463454 -0.021825556 -0.012583237 -0.001884446
0.02777871 0.026961941 -0.008869352 0.02477909 0.008798479 -0.009067813 -0.020081796 -0.00026969425
-0.0013413441 -0.01332292 0.03102699 0.0030254617 -0.021379437 -0.01883779 -0.010022891 0.028724113
-0.01061659 -0.0012360401 -0.021983553 0.02474936 0.026570478 0.03048413 0.023793297 -0.002753363
00000000: fd3b 05bc cabb 64bc 89e1 443c 8c8d f9ba
00000010: cf84 cdbc 6f18 7abc 479b f5bc 3e3c ddbc
00000020: 8cd1 3abc 382f 9cbb 7120 34bc 0806 08bd
00000030: a3c7 0ebc 0275 2cbc f47f 02bd bead 1fbc
00000040: edbc 9abc 6e80 82bc eb51 063d 5aaf 943b
00000050: c17f ccba cd27 45ba 9c9c bebc a02a 64bc
00000060: 7abc a4bc 0edf d9bc c0de a13a d2af d23b
00000070: c836 d13c baed 05bd 7434 debc 109f 5838
00000080: 44a4 d03c a0f3 dfbc 6039 39b8 7bcf 99ba
00000090: 2675 18bc 5904 3d3b 4611 9b3a 32f7 073b
000000a0: 7e29 39bc 1a28 79bb c3d2 d4bc c97e f7bb
000000b0: f1a6 033d a057 64bc 684b c9bc 85fb c5bc
000000c0: 3161 b0bc 63da ef3c 16e4 92bc f93a 06bd
000000d0: 5831 7cbc 60b0 94ba ff1a 673c fff0 f13c
000000e0: 7076 ca3c 2db4 be3c 8ba0 d4bc 3f1b 863c
000000f0: ae55 c23c fe5e 363c b94d 93bc a81e 27bb
00000100: 1095 aa3b fa90 e33a f1cd a6bc d43b 3f3b
00000110: 10af e83c 9beb a4bc 9f6e c8bc 9a88 a73c
00000120: 6c08 dbbc 9fe3 5abc e1c5 f43c 804a f43c
00000130: 198c 9b3c a230 d53c 129d e03c f773 bcbc
00000140: 4bb2 e5bc 9e55 ecbb 8241 b4ba c9dd e1ba
00000150: 364e bcbb 69a1 c4bc 33f7 16bc 158e 723c
00000160: 5e49 f83c 7c2e da3c 3947 7f3c 24df 2a3c
00000170: 6814 cd3b b473 573b 28ef 9bbc bbe1 4f3c
00000180: 4a49 503c c729 cc3c 6701 8dbc 8045 d0ba
00000190: 6177 00bd b9a9 ae3c 6b78 f5bb 913d bebc
000001a0: 7052 c4bc c728 e9bc 89b4 9d3a e22f 88bb
000001b0: ceba f73c cdaa 9bbc 32d9 c5bb b790 30bc
000001c0: 4172 87bc 257f 063d 6aa4 b7bc d207 0ebb
000001d0: 8801 1bbb cd0a 3dbc 71d0 e1bc 8c56 433b
000001e0: 5f67 17bc 3e49 d2b9 4720 06bb 2e3e eebc
000001f0: 1dc2 573a ccce bc3c 1369 80bc cb2a 653b
00000200: 0873 83bc 7222 2bbb 988c 07bd 4605 b83c
00000210: 68f6 45bb b70f 65bc cab7 c1bc 4ca1 bbbc
00000220: 7047 e9bc 12fc 613c 62fe 6ebc d2e1 703b
00000230: 9c38 7fbc 2b31 d7bc 5c70 cbbc 165d bb3c
00000240: e069 d33b ad87 133b 4a0f 8d3c 5111 ddbc
00000250: 1397 b7bc cc8e f33a d239 933c 6760 c03b
00000260: 3e20 333b d21c e4bc cb76 7c3c 01e2 b63c
00000270: b8a1 e83c a527 b5bb cad1 abbc 8a21 43bc
00000280: b361 f9bc d3ec 44bc 7020 8dbc 33cc f4bc
00000290: fd93 8cbc 3271 cbbb 02bf ebbc 18a0 1cbc
000002a0: 5840 ae3c 0945 60bc 6a86 28bb b406 e2bc
000002b0: a98e ee3c 7e11 8cbc 3162 febc 5aa4 da3c
000002c0: c0a0 ee3c 1e97 93bc 1ebd c3bc 052a 413c
000002d0: d388 a43b 411e dd3b cc91 95bb 02c8 f83c
000002e0: a30c 7cbc ce57 b3bc c833 3bbc c856 a03c
000002f0: ab27 983c aa91 9dbc 00e6 03bd 160a ae3c
00000300: 8303 a0bc 9887 03bd e345 813a b681 833c
00000310: 9441 0ebc 50a7 c2bc ed53 62bb 8d2d 2cbc
00000320: caac fd3c ab9c 4f3b 084b 20bc 68a8 023d
00000330: c628 033d ba61 f9bc 4e98 363a 8440 87bc
00000340: 1da5 b53c 6b85 853c ff73 ccbc 0e77 0f3c
00000350: 4bba d0bc bf57 ae3c 394f b9bc 20b2 cbbc
00000360: a2ec 6bbb af61 b83c 9e5a 6cbc 5aa8 cf39
00000370: ba33 e9bc e644 b13c d4f2 3dba 154a a6bc
00000380: 7fda 1dbc e992 eebc 7344 12bc 4f56 81bb
00000390: 2a42 92bb 82cb b2bc ec29 4ebc 84ff f6ba
000003a0: 2d90 e33c 4adf dc3c c250 11bc 85fd ca3c
000003b0: 7f27 103c 2a91 14bc 9482 a4bc c065 8db9
000003c0: 0ad0 afba 6048 5abc 502c fe3c d346 463b
000003d0: ee23 afbc b551 9abc 0d37 24bc d54e eb3c
000003e0: 35f1 2dbc a002 a2ba da16 b4bc 2bbf ca3c
000003f0: 55aa d93c dbb9 f93c 29ea c23c c471 34bb
