src/data/lin_reg_params.pt (torch, 771363 bytes, 4 tensors)

lin1.weight f4 [64, 3000]
0	0x3c06a949	0.008219072
1	0x3c1c3c5a	0.009535873
2	0x3bdfdfab	0.006832083
3	0xbb6f534b	-0.0036518152
4	0xbbc906c2	-0.006134839
5	0xbb9f51c3	-0.0048620417
6	0x3c2dbd56	0.010604223
7	0x3c5dc2e4	0.013535235
8	0x3bc7fa54	0.0061028395
9	0x3c9a16ed	0.01880976
10	0x3cb6449a	0.022249509
11	0xb9c9eea2	-0.00038515503
12	0xba96b1f2	-0.0011497124
13	0x3cca9f38	0.024734125
14	0x3b28ddc2	0.0025766944
15	0x3cf323ce	0.029680159
16	0x3ccdff88	0.02514626
17	0x3cb779ce	0.022396948
18	0x3bb8da3d	0.0056412504
19	0x3c3f8c8a	0.011691222
20	0x3c1b5fa9	0.009483256
21	0x3abfc552	0.001463095
22	0xbb1146c3	-0.0022167421
23	0x3c37a3fe	0.011208532
24	0x3a9e664c	0.001208493
25	0x3c94d046	0.018165719
26	0xbbe92329	-0.007114787
27	0xbcb174ed	-0.0216622
28	0xbaa81f56	-0.0012826722
29	0x3b96e7e1	0.004605279
30	0x3c478dfb	0.012179847
31	0xbc22eefe	-0.0099446755
32	0x3c854c26	0.016271662
33	0x3cdd3c77	0.027006371
34	0x3ca0747a	0.01958679
35	0x3cbe5e2e	0.023238268
36	0x3ca04855	0.01956574
37	0xbbb45c9f	-0.0055042054
38	0x3c28790f	0.010282769
39	0x3c7e23b8	0.015511446
40	0x3cc3b62d	0.02389058
41	0x3c2b0815	0.010438939
42	0xbc643be1	-0.013930292
43	0x3ce58bf4	0.028020836
44	0x3c575a55	0.013144095
45	0x3bcb437e	0.006203114
46	0x3ce50220	0.027955115
47	0xbc15a00b	-0.0091323955
48	0x3c97b878	0.018520579
49	0x3cc20b95	0.023687163
50	0x3bd66f22	0.00654401
51	0x3bd19544	0.0063959677
52	0xbc8a4b77	-0.016881688
53	0xbc99296e	-0.018696513
54	0xba83ff7a	-0.0010070645
55	0x3bb11eed	0.005405298
56	0x3ca8ecf7	0.020620806
57	0xbb9f311c	-0.004858149
58	0x3bbd3be4	0.005774962
59	0xbbb4775c	-0.005507393
60	0x3b892a9f	0.004185989
61	0xbaa38cea	-0.0012477909
62	0x3b823d9a	0.0039746286
63	0xbac1b4d6	-0.0014778625
64	0x3ca1fa23	0.019772595
65	0x3c063137	0.008190445
66	0xbacc6d23	-0.001559649
67	0x3c340b3a	0.010989005
68	0x3a59703b	0.0008294617
69	0xbbe51adc	-0.0069917273
70	0x3aec2872	0.0018017425
71	0x3a7a9568	0.00095590064
72	0xbc9d28b6	-0.019184452
73	0x3ab1e650	0.0013572667
74	0x3b2cf984	0.002639384
75	0xbc56bb24	-0.013106141
76	0xbbe8d320	-0.007105246
77	0x3cb9039a	0.022584725
78	0x3b1f84b2	0.0024340567
79	0x3bafd471	0.005365901
80	0x3b7eaabc	0.003885909
81	0x3c84d393	0.016214168
82	0x3cf56ae8	0.029958203
83	0x3c331005	0.010929112
84	0x3bfa4215	0.007637272
85	0x3bd3d5a8	0.006464679
86	0xbaaa7cf7	-0.0013007213
87	0xbc752ea0	-0.01496473
88	0x3b89cb79	0.004205164
89	0xbc146a7d	-0.009058592
90	0xbc9da0ad	-0.019241655
91	0xbc273acc	-0.010206889
92	0xbce4e069	-0.027939038
93	0x3bb5222a	0.0055277543
94	0xbc8ceb85	-0.017202148
95	0x3c185e8c	0.0092998855
96	0xbceb2238	-0.02870284
97	0x3c944afa	0.018102158
98	0x3b36d15a	0.002789578
99	0x3c99b599	0.01876335
100	0x3caa0dc9	0.020758526
101	0x3c0f854e	0.00875981
102	0x3c74cd50	0.014941528
103	0x3b95b8a2	0.004569129
104	0x3cb6642f	0.022264568
105	0x3caffac3	0.021481877
106	0x3b8241ee	0.0039751446
107	0xbcadac90	-0.021200448
108	0x3c670df0	0.014102444
109	0x3bd0e4e1	0.0063749407
110	0x3c3712ca	0.011173913
111	0x3c51c8b1	0.012804196
112	0xbb2e4655	-0.0026592214
113	0x3c5c8a0b	0.013460646
114	0xbb7701f2	-0.0037690368
115	0x3c925b5d	0.017865831
116	0x3c8c66f8	0.017138943
117	0xbb5b7b26	-0.003349015
118	0xbc8dbaa4	-0.017300911
119	0x3ca613e1	0.02027315
120	0x3c1cf8e0	0.009580821
121	0x39f90e7e	0.00047503778
122	0xbb39030a	-0.0028230571
123	0x3c951bd4	0.018201746
124	0xbb1602a6	-0.0022889762
125	0xbc5e71fc	-0.013576981
126	0xbbbcfdf5	-0.0057675787
127	0xbc1ccac8	-0.009569831
128	0xbc38449f	-0.011246829
129	0xba8357ae	-0.0010020637
130	0xba1ebaae	-0.0006055039
131	0xbc21a81c	-0.009866741
132	0xbcd46c2e	-0.02593049
133	0xb964bdb0	-0.00021814439
134	0x3b1b7bff	0.002372503
135	0x3cf92765	0.030414293
136	0x3c83e649	0.01610102
137	0xbc8608e7	-0.016361667
138	0x3c86f698	0.016475007
139	0x3a1aae32	0.0005900591
140	0xb9607238	-0.00021404854
141	0x3c3dccfc	0.011584517
142	0x3cdcbffe	0.026947018
143	0xbb00506c	-0.0019579185
144	0x3b84c96c	0.0040523317
145	0xbc609e8b	-0.013709675
146	0xbc0fae86	-0.008769637
147	0x3cd2be4c	0.025725506
148	0x3cc29e24	0.023757048
149	0x3c6f12aa	0.014591852
150	0xbb0866d4	-0.0020813243
151	0xbc495495	-0.012288232
152	0xbb85431c	-0.004066838
153	0x3cb8e54d	0.022570277
154	0x3cc6cc6f	0.024267403
155	0xbc7ffe15	-0.015624543
156	0xbce4e49a	-0.027941037
157	0x3c5db96f	0.01353298
158	0x3cb2387b	0.021755448
159	0x3c4bab02	0.012430908
160	0x3a825aa7	0.0009945229
161	0x3bdcee80	0.0067422986
162	0x3babd5b8	0.005243983
163	0x3c74a03e	0.014930783
164	0x3c63cfa9	0.0139044905
165	0x3b9a0742	0.004700572
166	0x3c166a41	0.009180606
167	0x3ca4f377	0.020135624
168	0xbc8388d7	-0.016056461
169	0x3cf2fc66	0.029661369
170	0x3c781f1d	0.015144137
171	0x3ce9893f	0.028507827
172	0xbc9b40e1	-0.018951835
173	0x3ce554c2	0.027994517
174	0x3bc64410	0.006050594
175	0x3baba925	0.0052386695
176	0xbce96f96	-0.028495591
177	0x3c3055e3	0.0107626645
178	0x3c98c0c1	0.0186466
179	0xbc322c55	-0.010874827
180	0x3b669767	0.0035185458
181	0xbca0e851	-0.019642027
182	0x3c9bfd50	0.019041687
183	0xbba58d19	-0.0050522205
184	0x3c7c71c3	0.015407982
185	0xbca70cf5	-0.02039192
186	0x3a49e9cc	0.000770238
187	0xbc95b893	-0.018276488
188	0xbce6b9f7	-0.028164847
189	0x3cd67fa9	0.02618392
190	0x3c9c481a	0.01907735
191	0xbb1663a8	-0.0022947583
192	0x3b3e90b4	0.002907795
193	0xb9888e20	-0.00026045833
194	0xbce0ee7b	-0.027457466
195	0xbcbfbfb7	-0.023406846
196	0x3c62f278	0.013851754
197	0x3bf11027	0.007356662
198	0x3c7a581f	0.015279799
199	0x3cbec546	0.023287427
200	0xbb21ed57	-0.0024708116
201	0x3cb3c928	0.021946505
202	0xbb0c6ed0	-0.0021428354
203	0xb9adc43a	-0.00033143332
204	0xbc9a338f	-0.018823413
205	0x3c43166f	0.011907204
206	0x3c1f221b	0.009712721
207	0x3cf1423e	0.029450532
208	0xbcc43575	-0.023951272
209	0xbbc7cd56	-0.006097476
210	0x3a99500e	0.0011696832
211	0x3af88da5	0.0018963112
212	0x3ca58d23	0.0202089
213	0xbcbae8e4	-0.022816129
214	0xbab5285c	-0.0013821232
215	0x3b826d24	0.0039802957
216	0x3ccca97a	0.024983156
217	0xbb6dd76a	-0.0036291727
218	0xbbb86726	-0.0056275306
219	0xbcc6f107	-0.024284853
220	0x3cd20d11	0.025640996
221	0xbcea079a	-0.028568078
222	0x3c2d461e	0.010575799
223	0x3cb46540	0.022020936
224	0x3b36313d	0.0027800344
225	0x3c1eeb58	0.009699665
226	0x3ce6bd0c	0.028166316
227	0x3c86ed42	0.016470555
228	0x3b2ba1fa	0.0026189075
229	0x3b995718	0.004679572
230	0x3cd58719	0.026065396
231	0x3cdcc3dd	0.026948864
232	0xbb183441	-0.0023224505
233	0xbccdcbde	-0.025121626
234	0x3bd7b1af	0.006582461
235	0x3b67401b	0.0035286013
236	0xbc8c7597	-0.017145915
237	0x3c2b5150	0.010456398
238	0x3cc11645	0.02357019
239	0xbb22ba67	-0.0024830343
240	0x3ca693c6	0.020334136
241	0x3ccfaf79	0.025352227
242	0xbcf66848	-0.030079022
243	0x3c0bb4bb	0.008526976
244	0x3bdf99b2	0.006823742
245	0x3bac816a	0.005264451
246	0xba58b6d3	-0.0008266989
247	0xbc30eb37	-0.010798267
248	0x3c92f7d5	0.017940441
249	0x3bbc1c24	0.0057406593
250	0x3c28ffd6	0.010314902
251	0xbcb5ffe0	-0.022216737
252	0xbbbebab1	-0.005820595
253	0xbccb6fae	-0.024833526
254	0xbb7b6ee2	-0.0038365652
255	0x3cebb7b1	0.028774114

lin1.bias f4 [64]
0	0x3cd1adce	0.025595572
1	0x3cdc6e21	0.026907982
2	0xbaffa54d	-0.001950422
3	0x3c1f22f7	0.009712926
4	0x3c1f7860	0.0097332895
5	0x3c788f72	0.015170919
6	0x3b9b792e	0.0047446704
7	0x3b55469e	0.0032543312
8	0x3c72505b	0.014789666
9	0x3c298baa	0.01034824
10	0xbc0b2c0e	-0.00849439
11	0x3c172c6c	0.0092269
12	0x3c6dcc35	0.014514019
13	0xba782849	-0.0009466452
14	0xbbd26dbe	-0.0064217737
15	0x3cd2de8f	0.02574089
16	0x3c62c250	0.013840273
17	0x3b05cc92	0.0020416123
18	0x3ca023ee	0.019548383
19	0x3a05ec57	0.0005108765
20	0x3c893dda	0.016753126
21	0x3ccbedbe	0.024893638
22	0x3b096331	0.0020963664
23	0x3c234f6b	0.009967665
24	0x3cf68c5f	0.030096231
25	0x3bf4d25b	0.0074713654
26	0xbbbc0c65	-0.005738782
27	0x3c586dc4	0.013209764
28	0x3ba66ba6	0.0050787507
29	0xbaeffb38	-0.0018309122
30	0x3cceb773	0.02523396
31	0x3c3b937e	0.011448739
32	0x3c87f9d5	0.016598621
33	0x3c82e37b	0.015977612
34	0x3cdda986	0.027058374
35	0x3c45dbf8	0.01207637
36	0x3c92461a	0.017855693
37	0x3c31d8a8	0.0108548775
38	0x3c31f42c	0.010861438
39	0x3c228292	0.009918826
40	0x3c894377	0.016755803
41	0x3b37f5ba	0.0028070048
42	0x3cb919d2	0.02259532
43	0xbaa45878	-0.0012538573
44	0x3c455318	0.012043737
45	0xbc43d630	-0.011952922
46	0x3c17d366	0.00926671
47	0x3be122a2	0.0068705836
48	0x3c29347f	0.010327457
49	0xbb04e73e	-0.0020279433
50	0xbbc329c2	-0.0059559057
51	0x3b07ba05	0.0020710242
52	0x3bdec3d7	0.0067982483
53	0xbb42259f	-0.0029624475
54	0xbc17e0d2	-0.00926991
55	0xbbea2197	-0.0071451175
56	0x3c94533d	0.018106097
57	0xbb87eb18	-0.0041478984
58	0x3ba729b1	0.0051014055
59	0x3ca0dc47	0.019636286
60	0x3c8b95e5	0.017039249
61	0x3ba2c982	0.0049678693
62	0xbb12aa15	-0.0022379209
63	0x3c2ed646	0.010671204

lin2.weight f4 [2, 64]
0	0x3d9fd2f9	0.07803912
1	0xbdf81da7	-0.12115031
2	0x3db90edf	0.090360396
3	0xbcacc22b	-0.02108868
4	0xbdaff1d3	-0.08591046
5	0x3cb4cb03	0.02206946
6	0x3d20f190	0.039292872
7	0xbcc2c5a6	-0.023775887
8	0xbab03f90	-0.0013446677
9	0x3c61ec64	0.01378927
10	0x3c419999	0.011816406
11	0xbdace19a	-0.084414676
12	0x3b79b541	0.003810242
13	0xbd77fe44	-0.06054522
14	0xbd68b97b	-0.056817513
15	0x3ca13ec9	0.019683259
16	0x3dc0ac88	0.09407908
17	0x3ca74a89	0.020421283
18	0x3d682c32	0.056682773
19	0xbda51e16	-0.08062379
20	0xbd9b4174	-0.075808436
21	0xbc862a2d	-0.016377533
22	0x3dd08a28	0.10182601
23	0x3de35448	0.1110006
24	0xbdd49ce6	-0.103814885
25	0xbdf5b99f	-0.11998295
26	0x3c870830	0.016483396
27	0xbdfc6f6e	-0.12325941
28	0x3d4b8274	0.049684957
29	0x3d9d619a	0.07684632
30	0xbdab4823	-0.08363368
31	0xbd035614	-0.032064512
32	0x3de22a6f	0.1104325
33	0x3e05b58b	0.13057534
34	0xbdada8ee	-0.084794864
35	0xbcab1428	-0.020883635
36	0x3d4f002c	0.050537273
37	0xbd77c1b7	-0.060487475
38	0x3e0162ad	0.12635298
39	0xbd0b4580	-0.034001827
40	0xbdea43a0	-0.1143868
41	0xbdc85ff8	-0.097839296
42	0xbd97fd5c	-0.07421371
43	0x3de8e338	0.113714635
44	0x3c1a08f1	0.009401546
45	0xbdf761ee	-0.120792255
46	0x3d22ed28	0.03977695
47	0x3aa3de9b	0.0012502255
48	0xbd4a2c86	-0.049358867
49	0xbdaf36c1	-0.08555365
50	0xbdeaa858	-0.1145789
51	0xbdc196ae	-0.09452568
52	0x3df5426d	0.1197556
53	0xbbc24aab	-0.0059293113
54	0x3d4af7cb	0.04955272
55	0xbd89e879	-0.06733794
56	0xbdd85a2a	-0.105640724
57	0x3dde03e7	0.10840588
58	0xbd18393d	-0.03716396
59	0x3d6c46ea	0.057684816
60	0x3d59b9d1	0.053155724
61	0x3b401e91	0.0029315094
62	0xbceb6c52	-0.028738175
63	0xbdb3abfb	-0.08773037
64	0x3c6a1c63	0.0142889945
65	0xbd34e4e4	-0.0441636
66	0xbe028caa	-0.12748972
67	0xbda1fa3c	-0.079090565
68	0x3e00b448	0.12568772
69	0xbd812d4a	-0.06307466
70	0x3dce2093	0.10064807
71	0x3d4033f7	0.046924558
72	0x3e03d22f	0.12873147
73	0x3d9c90b4	0.076447874
74	0xbd4b8b44	-0.04969336
75	0x3dad2bb4	0.08455601
76	0x3da4e82c	0.08052096
77	0xbb77dea6	-0.0037821918
78	0x3d1c6f3e	0.038192026
79	0xbe0a80cf	-0.13525699
80	0xbdae731a	-0.08518048
81	0xbd00d3e1	-0.031452063
82	0x3ded735e	0.1159427
83	0x3da3224e	0.079655275
84	0x3aadf480	0.0013271719
85	0x3d07786b	0.033073824
86	0xbdc143d0	-0.09436762
87	0xbc4efefb	-0.012634034
88	0xbd586f70	-0.05284065
89	0x3de24e05	0.11050037
90	0xbdc68bfb	-0.09694668
91	0x3dfe5fe0	0.124206305
92	0x3da15154	0.0787684
93	0x3d3b9632	0.045797534
94	0x3e07b9e8	0.13254511
95	0x3da9bea8	0.08288318
96	0x3db2e91b	0.087358676
97	0x3b81d585	0.003962221
98	0x3dca70d8	0.098848045
99	0x3dd6d2ad	0.10489402
100	0xbd6f1410	-0.058368742
101	0x3dca3058	0.09872502
102	0x3c5b02e5	0.013367389
103	0x3d54417d	0.051820267
104	0x3c971f9d	0.018447692
105	0x3d50fe59	0.051023815
106	0x3d9f4938	0.07777637
107	0x3cce5381	0.025186302
108	0xbdd621ac	-0.10455641
109	0x3bef241c	0.0072980057
110	0xbdfcda70	-0.12346351
111	0x3d1abade	0.037775867
112	0xbd94f08b	-0.072724424
113	0x3d95b355	0.073095955
114	0xbc79e914	-0.015253324
115	0xbd765eac	-0.06014888
116	0xbae86490	-0.0017730165
117	0xbd6ae30d	-0.05734544
118	0xbd9f8405	-0.077888526
119	0xbcccb142	-0.024986867
120	0x3dd913b2	0.1059946
121	0xbd1e7725	-0.038687844
122	0x3db6be5a	0.089230254
123	0xbe04a81d	-0.12954755
124	0xbbe9906e	-0.007127813
125	0xbd3835be	-0.044973128
126	0xbd534c0c	-0.051586196
127	0x3d2f5808	0.042808563

lin2.bias f4 [2]
0	0xbd9a23d9	-0.07526369
1	0xbdb67341	-0.08908702
